realtime_pose_detection_android/app/src/main/ml/mlkit_model_2.tflite (tflite, 86576 bytes, 5 tensors)

sequential_1/dense_4/BiasAdd/ReadVariableOp f4 [64]
00000000: 6fa2 14bc a55f 84bc dd3f abbb 4c86 61bc
00000010: 3dd1 c0bc 027f b53c bc26 233a b238 7e3c
00000020: eb8b eb3b 97b5 a2bb 08b6 edbb 0000 0000
00000030: f834 593c 0000 0000 0000 0000 7cbb 863c
00000040: 0fcf 8d3c 72ff bb3b 0000 0000 9b0f 16bc
00000050: 5ca8 08bb 32f5 58bc 6729 873c 0000 0000
00000060: 62f1 96bc b275 09bc db36 d8bb c0fe 91bc
00000070: 5890 bd3b 48e6 39bc 67be d5bb 5ce8 84bc
00000080: b973 ae3c e4ad 63bc 07d3 71bc f9b7 bb9b
00000090: 7df5 aabb 7dde 433b 14e9 cebb 072b cd3a
000000a0: 6467 573c 4a8c 4dbc 5d81 df3c 3a5d 693c
000000b0: 2d7e e6bb d694 1cbb d215 cb3c f11a 94bc
000000c0: d9b8 83bc d424 453c 0000 0000 75a6 723c
000000d0: 0000 0000 3d05 84bc cffa 493c 13ac 453b
000000e0: 090a 8fbc e900 86bc c442 84bc 588c 71bc
000000f0: 686d c13c 3b73 95bc 11ca f4bb d019 8dbb
-0.00907193 -0.016158888 -0.005226119 -0.013764929 -0.023537273 0.022155289 0.00062237284 0.015516447
0.0071883104 -0.004965495 -0.007254366 0.0 0.013257258 0.0 0.0 0.016446821
0.017310647 0.0057372386 0.0 -0.009158994 -0.0020852303 -0.013242053 0.016499234 0.0
-0.018425647 -0.008389877 -0.006598336 -0.01782167 0.0057850294 -0.011346407 -0.006522942 -0.016224079
0.021295415 -0.013896439 -0.0147597855 -3.1055444e-22 -0.0052172528 0.0029887252 -0.006314406 0.0015653082
0.013147209 -0.012545655 0.027283365 0.014243418 -0.0070340843 -0.0023892424 0.024790678 -0.018079253
-0.016079353 0.012032706 0.0 0.014810194 0.0 -0.016115779 0.012327864 0.0030162379
-0.01746084 -0.016357856 -0.016145118 -0.014742933 0.02361174 -0.018243423 -0.0074703773 -0.0043060556

sequential_1/dense_3/BiasAdd/ReadVariableOp f4 [128]
00000000: 381b 38bc 9309 ea3b 2c3a 833c 9c53 22bc
00000010: 5474 293c eaf4 f0bb c84b f2bb 380b 383b
00000020: f17f 6d3b 0000 0000 786c 1cbc d823 1abc
00000030: 0061 8dbc 8992 8bbc f097 073a 1f74 273c
00000040: 914a 683c 1008 8abc 4017 53bb 0000 0000
00000050: af20 713c 0000 0000 3f0c a43b 0000 0000
00000060: 2006 8f3b 0000 0000 246f 333c 78d1 d2bb
00000070: 1423 4e3b 0247 94bc 225d ccbb 0000 0000
00000080: fe76 abbb 2d0d f0bb 0000 0000 0000 0000
00000090: 9229 72bc 0d25 abbb 64f5 24bc da89 c7bb
000000a0: 7775 7bba 1fa7 72bb 9209 873c 8bf5 4fbc
000000b0: d40f 98bc 9804 18bc 29f1 08bc a8ee d3bc
000000c0: d474 2fbc 0124 2b3c 06fa dfbb 5381 ed3b
000000d0: bea3 2a3c e34f 1dbc aaf9 9abb d78d 493c
000000e0: 8d68 eeba 9f5e 363c 73f9 b9bb 0000 0000
000000f0: 4705 333c 44dc 3cbc c48d b9bc a180 cf3b
00000100: 0000 0000 a644 963b ab7f 94bc 80cc 02bc
00000110: 3447 f03b a7e1 b13c 83be b330 1665 0a3c
00000120: efd2 76bc ea7d 84bb 55c1 5dbc 77ac 6c3a
00000130: 6ae1 89bb 0000 0000 c7f3 da3c d80b 3c3c
00000140: d4b5 99bc fae9 6c3c 4ee3 1bbc 38b8 34bb
00000150: 8a05 c0bb 3119 25a2 522b 5dbc ab08 a8bb
00000160: 5ebb 4e39 0000 0000 035c afbb 0000 0000
00000170: 65b7 3fbb e790 9d3c 8ee3 89bc 529a cfbc
00000180: 79e7 cdbb 4e57 23bc d8b9 7cbc 4e5c 5cbc
00000190: ac0b a13c 237b 773b 709c a9bc d6d5 3c3c
000001a0: 0000 0000 d218 78bc 5812 09bc 971c f33b
000001b0: 628e 60bc e7c9 ddba 9d9b bf3a 60b6 9fbc
000001c0: 0000 0000 12b5 65bb 0000 0000 8f39 93bc
000001d0: 5750 243c 5d3e 803c 563c 51bc cee7 8abc
000001e0: 0000 0000 f3a1 373c 1e23 cdbb fbe4 11bc
000001f0: f0fd 21bc c4ef ce9c 71fb aebb 003b 83bc
-0.011236958 0.0071422546 0.01601895 -0.009907629 0.010342676 -0.007353415 -0.0073942877 0.0028082859
0.003623959 0.0 -0.009547345 -0.00940796 -0.017258167 -0.017037647 0.0005172482 0.0102205565
0.014177934 -0.016849548 -0.0032209903 0.0 0.014717265 0.0 0.0050063427 0.0
0.004364744 0.0 0.010951791 -0.006433662 0.0031454014 -0.018100265 -0.0062366882 0.0
-0.005232691 -0.0073257894 0.0 0.0 -0.014780419 -0.0052229227 -0.010068271 -0.0060894312
-0.0009592394 -0.0037025881 0.016484056 -0.012692819 -0.018562235 -0.009278439 -0.008358278 -0.025870636
-0.010709006 0.010445596 -0.006835225 0.0072480827 0.010415016 -0.009601566 -0.0047294693 0.012301884
-0.0018189118 0.011130958 -0.0056754886 0.0 0.010926551 -0.011527125 -0.022650607 0.0063324724
0.0 0.0045858203 -0.018127283 -0.007983327 0.007332707 0.021714045 1.3078111e-09 0.008446952
-0.015064939 -0.0040433304 -0.0135348635 0.0009028385 -0.0042077797 0.0 0.02672757 0.011477433
-0.01876346 0.014460081 -0.009514643 -0.0027575623 -0.0058600353 -2.2375006e-18 -0.013499098 -0.0051279864
0.0001971549 0.0 -0.005351545 0.0 -0.0029253599 0.019234134 -0.01683214 -0.02534214
-0.006283697 -0.0099695455 -0.015425168 -0.0134497415 0.019658886 0.0037762604 -0.020704478 0.011525592
0.0 -0.015142636 -0.00836619 0.0074191797 -0.013705822 -0.0016921134 0.001461852 -0.019496143
0.0 -0.0035050553 0.0 -0.017971782 0.01002892 0.015654737 -0.012770733 -0.016956236
0.0 0.011208045 -0.00626029 -0.008904691 -0.009887204 -1.3693914e-21 -0.0053400327 -0.016019344

sequential_1/dense_3/MatMul f4 [128, 99]
00000000: 13b7 0e3e ea12 f2bb 3d5c c5b9 3013 1b3e
00000010: 8f0e e23c 5461 6c3c e781 17be ac23 30bd
00000020: 01f0 8abd b81d 183e 0d4c d3bd ccd7 283e
00000030: 7c43 79bd bc7c f53d 1ed9 9d3d 5fec 6fbd
00000040: 744d 4a3d d2ce b0bd c518 2bbc 0c8d a93d
00000050: af6a 153e 9884 edbb 1e45 1abe d046 003e
00000060: e45b cabd 45e8 cc3d a851 9b3d e850 de3d
00000070: e1a4 aabd 6e13 aebd b76e 063e 101f c13d
00000080: 2796 673d b967 0e3e 97f0 9bbd 07eb d6bd
00000090: d5a1 153e 84ab edbc 75cb c53c 5e27 a1bd
000000a0: 3b84 00bd c01c 84b9 75ef c3bd d72d c83c
000000b0: 9988 8fbd d048 c23d 415f 3e3d ad19 03bd
000000c0: ae85 673d 5d15 b4bd 3896 d13d 5130 4bbd
000000d0: f0e3 7ebd 6e2d 93bd c8f8 1cbd 1211 053e
000000e0: f190 393c 75a3 90bd 5a87 d5bd 6f36 313b
000000f0: 4815 94bd daf0 0b3e 7ada 133d 4823 c6bd
00000100: 233e a83d e829 13be 8011 b7bd 68c1 94bd
00000110: a1b1 ef3d 434a 9a3d 2a61 27be 37b7 cf3d
00000120: 0dc5 8fbd e296 7d3d 2135 d4bc 95dd 01be
00000130: 7eba 5b3c 4703 853d 356b 573d 9282 21bd
00000140: 3df7 7f3c 1049 febd bba4 37bd 52d4 323d
00000150: 9a8f 58bc 5180 fdbc 193a 543d 9737 10be
00000160: a3e0 9b3c ffb8 433d 1f29 9c3d 4172 7bbd
00000170: 70f0 073d d20f 2cbe 3d2e 27be 8291 2a3d
00000180: f881 0d3e 7e74 0e3e f8f8 2e3c 1e20 1f3b
00000190: e4b5 15be 20d6 78bd c9a5 77bd 4814 4c3d
000001a0: 53ec 093d 1178 85bb 1e4e b03d ebbe f8bb
000001b0: 44d2 e03d 81f9 e9bd 423d 213e 03ac c43d
000001c0: 3bf7 8e3d 22f0 103e e591 3b3c 8f09 ed3d
000001d0: 38e8 3a3d 2d33 dcbd d88e 003d b191 d63d
000001e0: 8a29 a4bc 7c7c fcbc 2bd2 02be d44e 473d
000001f0: a137 893d c525 a6bd ac03 6fbd 3503 1abe
00000200: 1b7f cebd 728b b63d a1f8 fd3d b2b6 d7bd
00000210: 5fcb 103d d876 1ebe 2d70 20bc dd01 173e
00000220: f249 91bd 3dff efbc 961a 113e 650c 05bd
00000230: f2d4 cfbc bdbe 06bd 17f0 b93d 7bfb 95bc
00000240: 56b6 263e 2d37 fe3d f7af 83bd a80a 82bd
00000250: 403b 2dbd 6c55 e1bc 2ea8 643d ec62 e6bc
00000260: 0bff 11be 0dc9 1fbe eac1 ce3d 27a0 b9bd
00000270: 04e0 063e e913 25bd 75cd 203d 3359 243e
00000280: eeb0 34bc b142 05bc 146c 9abb 5615 4cbc
00000290: da96 bb3d d305 c8bd 5391 b73d 5198 133e
000002a0: 3f44 153e c692 3f3b e4d2 403d e5ef 003d
000002b0: 9230 21bd 8132 083e abc6 6abd 2e9e 2ebd
000002c0: a85a f5bd 44fd 7b3c e247 e9bd f351 eebd
000002d0: 3d4b 7f3d 0944 8bbd c601 12bd 3c63 583d
000002e0: 04e5 bb3c 4d91 9c3d ded3 c7bd 56dd b63d
000002f0: 7376 49bd 8fab ccbd 6515 28bd ee25 c93d
00000300: 3f45 823d fcde 843d 624f a13b ec71 353d
00000310: 8a0c 023e f300 0ebe ce18 e23b 9dd1 57bd
00000320: e31f 76bd cdf9 f1bd 1bed 0a3e f34f f9bc
00000330: 41b8 073e c939 04bb 52c9 e83d 1bcb 0bbe
00000340: 99b8 fe3d 3003 0d3e 1e0b 923d 0ce9 9a3c
00000350: 5dd9 643d 976d 223b 0281 d2bc bb2c dabd
00000360: cee8 003e 021e 9dbd c324 f63c 8205 1a3d
00000370: 4988 43bd d6de 39bd 7d15 e7bd 1326 6e3d
00000380: 659b 2a3d 748f bcbb 176f 25bc bc05 e9bd
00000390: 54f7 f7bd 0fe5 8f3c 6570 aebd 2380 81bc
000003a0: e00f ed3d b37e 1fbe fe84 1abe 87b7 af3d
000003b0: ed28 2b3b b00f 88bd abcd b9bd af6e 78bd
000003c0: 22ec a53d 791c 373d f993 aabd 2dae afbc
000003d0: 9519 fb3d af7a 28bd 98f1 10be fabb 9cbd
000003e0: 9549 dfbd 2beb 763d 819f 143e 604a e7bc
000003f0: 62ed 03be f91e 4d3d ca6f a7bc 5ab4 803d
0.13937025 -0.0073875086 -0.0003764349 0.15144038 0.027594833 0.014427502 -0.14795648 -0.04300277
-0.06784058 0.14855087 -0.1031724 0.1648857 -0.060855374 0.11986682 0.077074274 -0.05857503
0.04939027 -0.08633198 -0.010442917 0.08278856 0.14591478 -0.0072484724 -0.15065429 0.12527013
-0.09880808 0.100052394 0.07583934 0.108552754 -0.083322294 -0.084998 0.13128172 0.09429753
0.05653968 0.13906755 -0.07614248 -0.10494047 0.14612515 -0.02901245 0.024144867 -0.07868837
-0.031376105 -0.00025198422 -0.09567157 0.02443592 -0.07008476 0.09486544 0.04647756 -0.03200691
0.05652397 -0.08793137 0.1023373 -0.049606625 -0.062229097 -0.071863994 -0.038323194 0.12994793
0.011326061 -0.07062427 -0.10426207 0.0027040502 -0.072306216 0.13666096 0.036097027 -0.09674698
0.08214977 -0.14371455 -0.08938885 -0.07263452 0.11703802 0.075336955 -0.16345659 0.10142367
-0.07020006 0.06191147 -0.02590424 -0.12682183 0.013411162 0.06494766 0.052592475 -0.039431162
0.015622911 -0.12416279 -0.044834834 0.043659516 -0.013217831 -0.030944975 0.05181322 -0.14083706
0.019028014 0.047783848 0.07625031 -0.061388258 0.033188283 -0.1680291 -0.16326232 0.041642673
0.1381911 0.13911626 0.010679476 0.0024280618 -0.14620167 -0.06075108 -0.06046084 0.04982403
0.033672642 -0.004073151 0.0860865 -0.0075911186 0.10977605 -0.11424542 0.15746024 0.09603121
0.06980749 0.14154103 0.011448358 0.11574089 0.045631617 -0.107519485 0.031386226 0.10477007
-0.020039339 -0.030821078 -0.12775485 0.04865916 0.067000635 -0.08112673 -0.05835311 -0.15040286
-0.10082837 0.08913316 0.12400938 -0.10532893 0.0353502 -0.15475023 -0.00979237 0.14746805
-0.07094182 -0.029296512 0.14170298 -0.032482523 -0.025370095 -0.032896746 0.09078997 -0.018308392
0.16280493 0.12412868 -0.06430047 -0.06349689 -0.042292833 -0.027506553 0.05582445 -0.028123342
-0.14257447 -0.15604039 0.1009558 -0.0906375 0.13171393 -0.04030219 0.03925844 0.16049652
-0.011028511 -0.008133576 -0.004712591 -0.012456259 0.09159632 -0.09766736 0.08963265 0.14413573
0.14576815 0.002923177 0.04707612 0.03147878 -0.03935296 0.13300516 -0.05731837 -0.04263132
-0.11980182 0.015380207 -0.11390664 -0.11636724 0.062327612 -0.06800086 -0.035646223 0.052829012
0.022936352 0.076449014 -0.09757207 0.08928935 -0.049185228 -0.0999366 -0.04103603 0.09821688
0.06360864 0.064878434 0.0049227932 0.044298097 0.12700096 -0.1386755 0.0068999296 -0.052690137
-0.060089003 -0.11815224 0.13567011 -0.03043363 0.13253881 -0.0020176044 0.11366524 -0.13651697
0.12437553 0.13770747 0.07131027 0.018909954 0.055871356 0.002478456 -0.025696281 -0.10653063
0.12588808 -0.07671739 0.030046826 0.03760291 -0.047737394 -0.04537853 -0.112833954 0.05814178
0.041652102 -0.0057544056 -0.010097287 -0.11378047 -0.12107721 0.017565278 -0.08517531 -0.01580817
0.115752935 -0.15575676 -0.15089795 0.08579927 0.0026116923 -0.06643617 -0.09072431 -0.06065243
0.081016794 0.044704888 -0.08329005 -0.021445358 0.12260739 -0.041132625 -0.1415466 -0.07653041
-0.109027065 0.060282867 0.14513971 -0.028233707 -0.12883523 0.050078366 -0.020439047 0.06284399

sequential_1/dense_4/MatMul f4 [64, 128]
00000000: 54d6 f7bd c922 89bd 2cd5 adbd c584 4c3c
00000010: 7fc9 03be eee0 0f3c 0e4a 0c3d e4f7 d6bc
00000020: 2de2 753c 10d3 d23c 6c07 94bd c26d 94bd
00000030: 695c cf3c 11d8 b8bd 0292 8f3d 7cc9 803d
00000040: 0ae7 033e 18c7 933d e006 073d 9c4a f6bd
00000050: 1bb8 193e b506 ccbd 0d38 fcbd 3025 4e3d
00000060: c746 f6bd a527 1dbe 7e47 6dbd 31be b1bc
00000070: f955 3ebe 3600 78bd 6774 a93d a8b7 693d
00000080: 8298 02bd 5d0c 513c ef60 2d3e 5f27 32be
00000090: a5b5 183d 69ff 24be d033 12be 5cd1 0a3e
000000a0: 4625 28be d7b8 10bc cdb3 923d b555 17bd
000000b0: f7e1 e73d 1cad ccbb dfc3 e5bd f42b e9bd
000000c0: 9efb ec3d 9def e53d fc90 a13c 00ea 3d3c
000000d0: c905 0fbe 3df0 263e 0441 0c3e ef95 02bd
000000e0: d0c0 123d 96fc fd3d 1f05 31be 0ff5 11be
000000f0: f4f1 99bd 46d2 783d 842a 35be fab4 02be
00000100: 5896 15bd aecb 31be c3ab 343d a07b f1bd
00000110: 57b9 213e 14b5 823d a71c b2bd 16d9 2cbe
00000120: d6da 0cbe 2907 fd3d 9002 383c c04b 06be
00000130: d4b4 2fbe 6238 bf3d f0f9 293e 059e 7dbc
00000140: 48fc 15be 932d 2cbe 333b 2d3e 8f5a 18be
00000150: edc0 0bbe 5198 93bd b959 ca3d dde0 113e
00000160: 651b b5bc 5a02 c93d fedc dbbd dddf 31be
00000170: eb60 edbd 0d6b 0f3e 387f fd3d eec3 3b3d
00000180: 6aec c23d 426c debd f65b d8bc 406f 12bc
00000190: 227f 2dbe 5224 943d 094d 173e 01e0 273e
000001a0: 4ce8 19bd ff9f 1b3e 2c4e 4fbd a800 12be
000001b0: 730d 133e cfbf b4bc 90b3 2fbe 3905 173e
000001c0: e770 1c3e 4dcb f4bd a223 f53d caff c43d
000001d0: 7f32 2e3e 6ea0 2abd f857 163e 5c2e 103d
000001e0: 60f5 55bd f652 1ebe a23f f13d 7392 aebd
000001f0: a4b5 d93d 4780 06be 409c 023d b4ca d7bd
00000200: 3ac4 ddbd dccf db3d 5431 f4bc 1829 0bbe
00000210: 9439 7b3d 877c d23d 82eb 35be abdd 093d
00000220: c26a f13d e2bb 32be 6693 f13d 1e25 193e
00000230: bb80 253e 6f48 0b3e b51d c03d 20a8 09bd
00000240: 0dc9 0cbe bc9e 823d d222 003d af73 bcbd
00000250: 8a79 92bd 9020 bbbd c1c6 18be e8f8 8b3c
00000260: 0364 c2bd a309 2a3e 760e a53d 9f6a 1ebe
00000270: 0148 45bc 1510 0ebe e448 01bd 7875 fcbc
00000280: dc5b cebd a06c d93d 802d 98ba 860a d23d
00000290: 7d69 e1bd 4d20 29be 139f 093e e888 d6bc
000002a0: aff4 103e 6293 10be bc99 a3bd c79f 3a3d
000002b0: fdaf 95ba f6fc ec3d bebb 1bbe 567e cabd
000002c0: 12b6 893d 458d a1bd 9cfa 66bc c8c8 013d
000002d0: b58a 223e 2abb e7bd adc9 e1bc 67b9 5c3d
000002e0: c345 a83d 74c7 863d a1f5 54bd c872 923d
000002f0: 14b2 f43d 39ac 18bd a05e b03b f257 f2bd
00000300: 5aa6 c23d f0e7 dbbc 958c c23d 5735 f13d
00000310: c3e8 25be f819 bd3d 2725 29be 635b 3f3d
00000320: 8d09 a3bd ce31 f3bc 37bc f0bd c728 0c3e
00000330: ef45 45bd 302d 323c d662 943d 6118 02be
00000340: 0054 063e cdd6 ccbd e2ea 203e 18b2 d93c
00000350: 80a5 47bc 71ba 1f3e 14e1 9bbd ed0f 303e
00000360: 07f3 9c3d ab24 81bd 6868 5bbd b71f 043e
00000370: 7c54 00bd 60bf 31bc b0c6 1e3e fad7 28bd
00000380: 05f2 a6bd ee48 c33d 0cd9 683d 642b 03bd
00000390: 44b4 d5bd deab 05be b218 d2bd 42fd 24be
000003a0: fc54 233d 7aa4 0b3e 1bb8 0d3e bd3a 9dbd
000003b0: e9cc a53b d9be b6bd fba8 193d 0fde c73d
000003c0: 50cf 1d3d 8c22 45bd 5462 613d 8e31 e93d
000003d0: 4257 8c3d 215f 2cbe 20ba d0bd 0de2 92bd
000003e0: b6ae e83d 8efe c63d 2098 d5bc 7ea2 91bd
000003f0: 3ab3 ebbd d83f 0fbd 3086 de3c 58e0 27be
-0.12101427 -0.06696088 -0.08487925 0.012482827 -0.12869833 0.008781655 0.03425031 -0.02624125
0.015007538 0.025735408 -0.07227978 -0.07247497 0.02531262 -0.090255864 0.07010271 0.0628843
0.12881103 0.072157085 0.03296554 -0.12025949 0.15011637 -0.09962217 -0.12315378 0.050328434
-0.120252185 -0.15347154 -0.05792951 -0.021697136 -0.18587483 -0.060547076 0.08274155 0.057059914
-0.031883724 0.012759295 0.16931508 -0.17397831 0.037282605 -0.16113056 -0.14277577 0.13556427
-0.16420469 -0.008833132 0.071632005 -0.03694697 0.11322396 -0.006246222 -0.11219 -0.113853365
0.1157143 0.11227343 0.019722454 0.0115914345 -0.1396705 0.16302581 0.13696676 -0.03188127
0.03582841 0.124016926 -0.1728711 -0.14253639 -0.07516852 0.060747407 -0.17692 -0.1276435
-0.036520332 -0.17362854 0.044109117 -0.11791158 0.15793358 0.06382194 -0.08696871 -0.16879687
-0.13755354 0.12354881 0.01123108 -0.13114834 -0.17158824 0.09336926 0.1659925 -0.015479569
-0.14647019 -0.1681426 0.16917114 -0.14878295 -0.13647814 -0.072067864 0.098803945 0.14245935
-0.02210779 0.09814902 -0.1073551 -0.17370553 -0.11590751 0.1400568 0.12377781 0.04584115
0.09517749 -0.10860492 -0.026411038 -0.008937657 -0.16943029 0.0723349 0.1477548 0.16394044
-0.03757505 0.15197752 -0.05061166 -0.14258063 0.14360599 -0.022064118 -0.17158341 0.14748086
0.15277444 -0.11952839 0.11969687 0.096191004 0.1701145 -0.041656904 0.14681995 0.03520046
-0.05223596 -0.15461335 0.11779715 -0.08524027 0.10630348 -0.13134871 0.031887293 -0.105367094
-0.10828443 0.107330054 -0.029808678 -0.13589895 0.061334208 0.10277658 -0.1776562 0.033658665
0.117879406 -0.17454484 0.11795692 0.14955565 0.16162388 0.1360185 0.09380666 -0.033607602
-0.1374857 0.063779324 0.031283207 -0.092017524 -0.07152088 -0.0913707 -0.14919569 0.017086461
-0.09491732 0.16605239 0.08059399 -0.1547036 -0.012041093 -0.13873322 -0.031563655 -0.030817732
-0.100761145 0.10616422 -0.001161024 0.102559134 -0.110064484 -0.16516228 0.13439588 -0.026188329
0.1415584 -0.14118722 -0.07988307 0.04556253 -0.0011420246 0.11571686 -0.15208337 -0.09887378
0.0672418 -0.07888273 -0.014097836 0.03168562 0.15873225 -0.113149956 -0.027561987 0.05388775
0.08216431 0.065810114 -0.051992062 0.07150799 0.11948028 -0.03727362 0.005382374 -0.118331805
0.09504385 -0.026843995 0.0949947 0.11777752 -0.16202073 0.09233469 -0.16518079 0.046718013
-0.07960806 -0.029686835 -0.11754649 0.1368743 -0.048162397 0.010875031 0.07245414 -0.12704612
0.13117981 -0.100019075 0.157146 0.02657418 -0.012185454 0.15598466 -0.076112896 0.17193575
0.07663541 -0.06305822 -0.053566366 0.12902723 -0.03133057 -0.01084885 0.15505481 -0.041221596
-0.0815163 0.095353946 0.056847617 -0.032023802 -0.104347736 -0.13053843 -0.102586165 -0.16112235
0.03987597 0.13636962 0.13839762 -0.07677219 0.0050598276 -0.0892312 0.037514668 0.09759151
0.038527787 -0.04812865 0.055025414 0.11386405 0.068525806 -0.16833164 -0.101917505 -0.07172022
0.113614485 0.09716521 -0.026073515 -0.07111071 -0.11508794 -0.034972996 0.027163595 -0.16394174

sequential_1/dense_5/MatMul f4 [1, 64]
00000000: a17a 853e 28d8 2cbe 104e 4b3e 6fc4 6b3d
00000010: 6dfb a9b9 b5f3 90bb 908d 523e 8c2c 91be
00000020: bb3f 54bc f735 f43d a487 4b3e 8030 5dbc
00000030: b5ff d8bc 1854 9cbd 01a0 93be edee 8fbe
00000040: ffef 87bd 460b abbd 9c45 52be 93d0 ed3d
00000050: 3e47 04be 77b4 5bbe 58ed 81bd d91d 81be
00000060: 5e22 ce3c db58 06be fb9a 4bbe 07a5 cf3c
00000070: 7c01 9abc e33a df3d 413f 5ebe 781c 7f3e
00000080: 4ee8 c6bd 7149 3b3e 3180 82bc fc3f 4c3e
00000090: 9d06 283d b556 80be 3138 82be 1975 d4bd
000000a0: 6b03 96be b997 543e a108 45be c776 ebbb
000000b0: 8095 403e 273a 533d b50a c8bd 198b 9b3d
000000c0: 3984 3e3e 3719 a6bd 3cf4 3abe b15f 1fbe
000000d0: 6c37 dc3d 7658 3f3d 7ecd f3bd a245 80be
000000e0: 479c 433e 5a83 553e df07 683e 00a4 7f3e
000000f0: 874a 88be 490d 5b3e 004c 803e 8ef2 173e
0.2607012 -0.16879332 0.19853997 0.05756038 -0.0003242152 -0.0044235834 0.20561814 -0.283543
-0.012954648 0.119243555 0.19875962 -0.013500333 -0.026489118 -0.07633227 -0.2883301 -0.28111973
-0.066375725 -0.083517596 -0.20534366 0.11612048 -0.12917802 -0.2145556 -0.06344098 -0.25218084
0.025162872 -0.13119833 -0.19883339 0.025347246 -0.018799536 0.108999036 -0.21703817 0.24913204
-0.09712277 0.18289734 -0.015930267 0.19946283 0.041021932 -0.25066152 -0.25433496 -0.10373897
-0.29299483 0.20761003 -0.19241573 -0.00718579 0.1880703 0.05156913 -0.09767667 0.0759489
0.18605126 -0.08110278 -0.1825723 -0.15563847 0.107527584 0.046715222 -0.11904429 -0.25053126
0.19102584 0.20850888 0.22659253 0.24964905 -0.2661936 0.21391787 0.25057983 0.14838621
