realtime_pose_detection_android/app/src/main/ml/model_2.tflite (tflite, 53320 bytes, 5 tensors)

sequential_3/dense_10/BiasAdd/ReadVariableOp f4 [64]
000000 26 d8 fd 3c bb 61 fc 3c 9d c8 0b bc cf 6d 90 bc
       0.030986857 0.03080832 -0.008531717 -0.017630486
000010 81 38 75 3c 80 f3 7f 3c b6 42 25 3e 6e b7 2f bc
       0.014967085 0.01562202 0.1613873 -0.010724885
000020 68 08 14 bd 63 fd 87 bb af a0 89 39 99 1b 96 3c
       -0.03614083 -0.004150079 0.00026250395 0.018323706
000030 6a a7 be bc 92 60 9c 3c d1 6a 59 bc 05 b0 76 bd
       -0.023273189 0.019089017 -0.013270096 -0.06022646
000040 0b b0 aa 3c ab 1d e7 3c c2 48 a0 3c 5b 27 dc 3d
       0.020835897 0.028212389 0.019565944 0.10749694
000050 07 ff 70 bc e8 32 4e bc c9 80 87 bc 5f 29 81 3c
       -0.014709241 -0.012585379 -0.016540902 0.015766798
000060 8b 3a d9 bc 68 bc 51 3c b5 64 87 3d 45 67 0a 3e
       -0.026517173 0.012801267 0.06611005 0.13515957
000070 a0 dc b9 3c 03 0b ab 3b 41 cc c6 3c 95 0b cf ba
       0.02268821 0.0052198186 0.024267318 -0.0015796298
000080 76 a4 54 bc d4 4d 6e bc b3 03 5c bc 13 56 12 3e
       -0.012978664 -0.014544923 -0.013428616 0.14290647
000090 86 3f 72 ba 54 06 dc bc 4d 9c 80 3c 90 7e 9b 3c
       -0.0009241033 -0.026858486 0.01569953 0.018981248
0000a0 6f 31 3f bc a5 67 9e 3d 1e 7a 18 bc 53 58 48 bc
       -0.011669501 0.077346124 -0.009306459 -0.012228089
0000b0 40 cc c7 bc 68 67 15 3e f4 70 99 ba a5 86 c8 bb
       -0.024389386 0.14590228 -0.0011706636 -0.0061195665
0000c0 e1 3c a9 bc d7 37 00 3e bb 1c 58 bc 45 f1 48 bc
       -0.020658912 0.12521301 -0.013190444 -0.012264554
0000d0 07 a6 a8 3c 47 43 23 bc 18 45 a2 3b f0 47 97 bb
       0.02058698 -0.009964771 0.0049520843 -0.00461673
0000e0 06 ce 1b bc 49 81 63 bc 59 e5 93 bc 43 b1 c5 bc
       -0.009509569 -0.013885804 -0.018053697 -0.024132377
0000f0 75 cb 0d ba 71 f1 05 bc 4b 9c 39 bc f7 37 0e 3d
       -0.00054090406 -0.00817524 -0.011328767 0.03472134

sequential_3/dense_9/BiasAdd/ReadVariableOp f4 [128]
000000 fd 81 99 bc e3 2b c5 bb f8 87 b1 3d 65 43 69 bb
       -0.018738741 -0.0060171946 0.08668512 -0.0035593149
000010 ce 31 ce bc 93 cf 98 bc 0e c1 1b 3e cc a6 6a bc
       -0.025170233 -0.018653667 0.15210363 -0.014321994
000020 8e f6 fb bc 9d f3 05 3e d4 dc 9f bb c9 1b 49 3d
       -0.030757215 0.13081212 -0.0048786197 0.049098764
000030 cf 37 60 bc d0 41 89 3a 51 09 f7 bb ea 7d 4d bd
       -0.013685181 0.0010471884 -0.0075389524 -0.05016891
000040 d5 59 30 3d c5 40 00 bc 06 4c c5 bc f1 3c 43 bc
       0.04305442 -0.007827942 -0.024084102 -0.011916385
000050 8b 19 1d 3b e2 e3 46 3d 59 bd 63 bc 70 e8 22 bb
       0.0023971524 0.04855717 -0.0139001245 -0.0024857782
000060 22 c0 7d bc 11 d1 8a 3b d4 b8 1c bc 5f 02 3a bc
       -0.015487703 0.0042363484 -0.009565551 -0.011353104
000070 70 9a 9b 3d 74 f1 7a 3a 17 6b 0a bc ec a0 e2 3d
       0.07597816 0.00095727225 -0.008448384 0.1106585
000080 a4 bc 7d bb be 20 a7 bc f5 ad 8b 3c f3 fb cf 3c
       -0.0038717175 -0.020401355 0.017050723 0.025388693
000090 8b 07 b1 bc 0b 16 b1 3d fe f1 c1 ba 66 16 b3 bc
       -0.021610042 0.086467825 -0.0014796851 -0.021861266
0000a0 a5 05 23 bc 39 d3 78 3b 92 5f dc 3c 1b b5 f8 3d
       -0.009950076 0.0037967695 0.02690104 0.12143918
0000b0 ed 6e 8c bb 4c 14 b0 bc 50 41 92 3b 58 2d 61 3b
       -0.0042856843 -0.021494053 0.0044633523 0.0034359302
0000c0 fa dd 24 bc 2e a9 4e 3e 76 d7 a1 3c 2a a3 2c 3d
       -0.010062689 0.20181724 0.01975606 0.042147793
0000d0 2a 7f 17 b8 71 1a cf 3b 58 ed 27 bd 64 43 11 bd
       -3.6119636e-05 0.0063202907 -0.040997833 -0.03546466
0000e0 d3 b6 d3 3c 09 4c 61 3e 9c 0d d6 bc d6 9d 67 bc
       0.025844013 0.22001661 -0.026129536 -0.014136752
0000f0 13 a9 8d bc 4d eb 2e 3e 12 19 88 bc 38 35 49 bc
       -0.017292535 0.17081948 -0.016613517 -0.012280755
000100 9b 1b 30 3e ad 07 45 bc 66 69 f4 b9 d6 77 d4 bb
       0.1719803 -0.012025756 -0.00046617835 -0.006484012
000110 a5 28 ac 3c e1 d8 85 bc 9c 43 16 3d a9 50 7d 3c
       0.021015475 -0.016338767 0.03668557 0.015461125
000120 55 41 7c 3a aa 97 01 bd 89 75 8e bc 0d 23 03 3b
       0.00096227723 -0.03163878 -0.01739003 0.0020009906
000130 fd c4 31 3d 77 e3 31 3b 69 3f 1d bc 5f 1c 31 3d
       0.043400753 0.0027143636 -0.009597638 0.043239947
000140 25 8c e3 bc 47 a0 bb 3a 08 fd d2 bb 5a 9b ab bc
       -0.027776787 0.0014314734 -0.006438855 -0.0209481
000150 1f c2 72 3a 0f b0 05 bd 56 68 64 bb 4b 46 12 3e
       0.00092604937 -0.032638606 -0.0034852228 0.14284627
000160 1b 16 e3 3d 29 eb 86 bb 72 d0 cd bc c7 e2 dd bb
       0.11088201 -0.0041173887 -0.025123809 -0.0067714187
000170 a3 6c 31 bd a7 e4 c9 bc 20 ee 7a 3b 56 cb b2 3c
       -0.043316495 -0.024645163 0.0038288906 0.021825474
000180 7a 13 ab 3d 6d d2 72 bb f0 c2 ca 3c 21 22 03 3b
       0.08353324 -0.0037051693 0.024751157 0.0020009356
000190 00 67 59 bc df 71 49 bc c8 d1 55 bc de 08 fd bb
       -0.013269186 -0.012295215 -0.013050504 -0.0077220043
0001a0 5a c6 31 bd 06 66 79 bc 88 c7 16 3d f9 b8 5e 3e
       -0.043402053 -0.015222078 0.03681138 0.21750249
0001b0 0f 68 4b 3e 36 72 59 bc 2c 61 ab bc 64 98 60 bd
       0.19863914 -0.013271859 -0.020920359 -0.05483283
0001c0 52 e2 7b bc 24 b4 90 3a 74 e2 4e 3c c4 07 36 3e
       -0.015373783 0.0011040014 0.012627233 0.177764
0001d0 4d 2c 0f 3b aa 31 65 bc 54 c3 95 3d 3c a5 81 bc
       0.0021846474 -0.013988892 0.073126465 -0.01582586
0001e0 1b 8e 4a ba 66 99 12 3e 4f b7 b2 bc 95 55 27 bb
       -0.0007726864 0.1431633 -0.021815924 -0.0025533189
0001f0 8c c9 f8 bc 69 81 3d 3d a9 66 0e bc f2 c1 b2 3d
       -0.030369543 0.046265993 -0.008691468 0.087283984

sequential_3/dense_9/MatMul f4 [128, 34]
000000 6e 4b 3f be 89 bd 17 3e 04 e6 69 3d 9b 11 05 3e
       -0.18681118 0.14818396 0.057104126 0.12994997
000010 9d ab 32 3c ca 9d 20 be 21 91 9e 3d 20 c9 0d be
       0.010905174 -0.15685192 0.07742525 -0.13846254
000020 c5 cd 69 3d f9 8c a6 bd 8c 21 ae 3c 6a 8c 02 be
       0.057081003 -0.08132357 0.02125623 -0.12748876
000030 3a e2 9b 3d f3 35 26 be 25 8e 2c 3d 2f 93 9a bd
       0.07611509 -0.16231517 0.042127747 -0.07547604
000040 c7 f0 76 3d 35 ba 4d 3d e2 6d b8 bd b7 56 88 3d
       0.060288217 0.05022641 -0.090053335 0.066571645
000050 4d ab 0f 3d 25 ee b9 3c 0d d6 82 bd a9 49 cd bc
       0.035075475 0.022696564 -0.06388483 -0.025059538
000060 74 ba 61 3d 62 db 3e 3e 8b 45 cf bc 14 1d 84 3c
       0.055109456 0.18638375 -0.025301715 0.016127147
000070 24 a1 14 bd 93 0c 0e 3d 5e 7d 16 bc 7b a3 50 be
       -0.03628649 0.03467996 -0.009185163 -0.20374863
000080 bb 06 ed bd 19 fa bd bd fe 7a d1 3d a1 d9 17 3e
       -0.11573549 -0.09276218 0.10228537 0.14829113
000090 a3 26 54 be 53 36 8f bd e6 32 47 be 33 2e fb bd
       -0.20717864 -0.069927834 -0.1945301 -0.12264671
0000a0 61 c5 fd 3d e2 2a 0c bd bc 62 2e 3e d4 64 10 be
       0.12391163 -0.034220584 0.17029852 -0.14100963
0000b0 b8 27 4c be 0e 3a ad bd b4 70 de 3d 24 cb 01 3e
       -0.19937027 -0.08458339 0.1086134 0.12675148
0000c0 74 53 3b be 88 78 d8 3c 82 1f 6c 3c 23 b2 28 3e
       -0.18293554 0.026424661 0.014411809 0.16474204
0000d0 ad 8a c7 bd bd 58 a6 3c 72 8c 9d bd 7c 46 c0 bc
       -0.09743247 0.020305986 -0.076928034 -0.02347111
0000e0 e0 f2 11 bc 95 0c 6b bd bd 83 67 bb 7e 58 ec bb
       -0.008908004 -0.057385046 -0.0035326325 -0.0072126975
0000f0 a2 ea 32 be 9c d9 2c be 19 57 16 be ad 71 c2 bd
       -0.17472318 -0.16879886 -0.14681663 -0.09494338
000100 5c 44 23 be de 16 13 be e7 0e c2 bd 4e 6c ed 3d
       -0.15944046 -0.14364192 -0.09475499 0.11592923
000110 da 10 7e 3c ec 30 fd 3d 55 1c bd 3c 6c 9e 7c 3d
       0.015506947 0.12362847 0.023084799 0.06167452
000120 c8 48 0d 3e 17 0f 29 3e 95 21 44 3e b2 a8 e7 3b
       0.13797295 0.16509663 0.19153436 0.0070696706
000130 0a 17 b9 3d 26 ad 51 3e 8c 9f c2 bc 4c 1b d9 bd
       0.090375975 0.20476207 -0.023757719 -0.106009096
000140 3d 57 03 3e 93 a9 13 be 9b 62 33 3e 06 e5 96 bd
       0.12826248 -0.14420156 0.17518084 -0.073679015
000150 be 2f 92 bd 40 51 ff bb 02 a3 f6 bd 8f fa bd bd
       -0.07138012 -0.007791668 -0.1204281 -0.09276306
000160 3f a9 91 3d 31 3e ba 3d bd 55 08 be 2d 19 3e bd
       0.07112359 0.09093893 -0.13313957 -0.04641073
000170 3c 28 f6 3b af 1e 9a 3d cb 59 07 be b9 e0 43 be
       0.0075121205 0.07525384 -0.13217847 -0.19128694
000180 3d 07 1a 3e 06 26 19 bd 0a d1 e1 bc be 8b 21 be
       0.15041824 -0.037389778 -0.027565498 -0.15775964
000190 97 b2 2c 3e 11 f2 05 3e 1a d6 af bd a5 28 1a 3e
       0.16865002 0.13080622 -0.085857585 0.15054567
0001a0 0b a8 f3 3c 74 c4 93 bb f6 e6 2f bd 37 f2 56 bb
       0.029743215 -0.004509503 -0.04294487 -0.003279818
0001b0 3d da 34 be 38 25 cd bd 05 ff 6c 3d 1a 0a df 3d
       -0.17661376 -0.100168645 0.057860393 0.108905986
0001c0 20 ea c5 3d 5c 40 f3 bd fb c6 f8 bd 27 b2 1c 3e
       0.096637964 -0.1187751 -0.121473275 0.15302335
0001d0 03 09 6b 3d e2 b7 3e 3e f6 45 3a be 05 87 ce bd
       0.05738164 0.18624833 -0.1819075 -0.10084347
0001e0 42 f8 c8 bc 4c a0 1e 3e a3 9f 14 3e 94 14 f9 3c
       -0.024532441 0.15490836 0.14514022 0.03040532
0001f0 b4 67 4d 3e 9b 56 86 bd 97 8d e7 3c f9 c9 75 3d
       0.20059091 -0.065594874 0.028265757 0.06000707
000200 3f 39 9d 3d 91 ac 9d 3c 35 ee ac bb 21 96 03 3e
       0.076769345 0.019247325 -0.00527742 0.12850238
000210 3e 11 8a bd 15 2a e3 bb f9 ec d8 bc 3b 6d be bd
       -0.0674157 -0.006932507 -0.026480185 -0.09298178
000220 46 0b 0d be 54 94 ce 3d fb 97 8c bd e5 4c 40 3d
       -0.13773832 0.10086885 -0.068649255 0.046948332
000230 9c b4 e2 bd bb fc c1 bd 4e a2 3b 3e d2 1f f7 bd
       -0.11069605 -0.09472033 0.18323633 -0.12066616
000240 ac 28 ee bb ec 67 0a bd 8c f6 0f be 3d d8 b8 bd
       -0.007268032 -0.033790514 -0.14058894 -0.09025619
000250 1d 48 68 3d 14 2c 4c 3e 46 85 a3 bd 9a 37 3d be
       0.056709398 0.1993869 -0.07984404 -0.18478242
000260 17 e7 bd bd 91 7e 2a 3e bd 98 1c be 0a db 42 3e
       -0.092725925 0.16649844 -0.1529264 0.1902887
000270 e2 db 39 3d 3d 4f bf bd 8a f1 58 3e b2 f9 36 be
       0.045375712 -0.093412854 0.2118589 -0.17868689
000280 eb 41 0f be 10 79 12 3e 6f cb 90 bd 8c f2 c3 bd
       -0.1398999 0.14303994 -0.07070052 -0.095677465
000290 b7 0a 8e bc 83 56 2a 3e c9 df 71 3a 7a b6 21 3e
       -0.017339094 0.16634564 0.0009226767 0.15792266
0002a0 7d 00 ff 3b 08 0d 31 bd e8 c2 99 bd ed 39 9b 3c
       0.0077820406 -0.04322532 -0.075078785 0.01894852
0002b0 f4 da 9c 3d b2 52 cf b9 4f cd f9 3d 08 d7 12 be
       0.076589495 -0.0003954373 0.12197363 -0.1433984
0002c0 3c fe 8f bd 3f d9 36 bc fc 06 24 be e2 08 b2 3d
       -0.07030913 -0.011160194 -0.1601829 0.086931005
0002d0 e9 1f 4b be d7 62 fc bd 8c 7e 8c bd bc 06 20 3d
       -0.19836392 -0.1232354 -0.068600744 0.039068922
0002e0 83 57 11 3e c6 61 c1 bd 19 82 16 3c 64 df 94 3c
       0.1419354 -0.09442477 0.009186291 0.018172927
0002f0 71 54 e7 3c dd e6 05 be 40 ba 0b 3c 69 76 b2 3d
       0.028238507 -0.13076349 0.008528292 0.08713991
000300 d2 ee c8 bd a1 8f 36 3e 46 c8 29 3d 81 3e 25 3d
       -0.09811176 0.17828228 0.04145076 0.04034281
000310 f0 f4 a6 3d bb 57 0a 3e 1d c2 38 bd 4f 17 39 bd
       0.08152187 0.13510029 -0.045106996 -0.045188244
000320 39 90 2f be c8 c7 05 3e 05 ed d0 bd 1a ec 27 be
       -0.1714486 0.13064492 -0.10201458 -0.1639866
000330 35 6c 38 be 2a 7d e6 bd 7d e2 e0 3d cb 9d b3 3d
       -0.18010028 -0.11254342 0.10980699 0.08770331
000340 8f 0f ed bd f5 83 e9 bc a5 40 cb bd ca 64 36 3e
       -0.11575233 -0.028505305 -0.09924439 0.17811885
000350 f9 9a 06 3e a5 ac 2d be 45 b1 ad bd ea b3 ac bd
       0.13145055 -0.1696039 -0.08481077 -0.084327534
000360 cf 2c 1d 3e dd d2 a3 3d 0c 23 77 3d c9 da d3 bd
       0.15349124 0.07999203 0.060336158 -0.10344464
000370 8c 17 ec 3d 34 f3 22 be 64 af 03 3e 2e 6b d0 3d
       0.11527929 -0.15913087 0.12859875 0.10176693
000380 ec 3e 4c bd 4f 1c 1f bd 83 50 13 be 77 e4 8c bd
       -0.049864694 -0.038845357 -0.14386182 -0.06879514
000390 29 c8 2c be 1f 56 43 be 5a a3 14 3e 62 a2 9b bd
       -0.1687323 -0.19075821 0.14515439 -0.075993314
0003a0 79 c6 e1 3d d1 96 7d bd c7 58 f4 bd db cd d3 3b
       0.11024184 -0.061911408 -0.119309954 0.006463749
0003b0 78 72 cb 3b 77 b5 26 3e 6a cd 2b be b7 c6 1e 3e
       0.006208714 0.16280161 -0.16777578 0.15505491
0003c0 18 36 13 3c 1e 84 1f 3c 92 2f 49 be a2 64 38 be
       0.008985065 0.009736089 -0.19647053 -0.18007138
0003d0 c2 88 27 be dc 45 bd bd 26 10 20 be 3a 7e 3c be
       -0.16360763 -0.0924184 -0.1563116 -0.18407527
0003e0 1d 54 1e 3e e6 ae ff 3c e9 3d 33 3e f3 33 57 bb
       0.15461774 0.031211328 0.17504086 -0.003283736
0003f0 1a 5b 8d bb 67 2c 11 be 1c e1 ae bd 2a d5 36 3d
       -0.0043138387 -0.14177094 -0.0853903 0.044636883

sequential_3/dense_10/MatMul f4 [64, 128]
000000 a2 50 ba bd 9a 12 98 3d 7b 09 ce 3d 89 ca b2 bd
       -0.09097411 0.07425423 0.10060402 -0.08730037
000010 55 30 7e 3d 92 3d 4a 3d db 3f 29 3e 92 78 68 bc
       0.06205781 0.049375124 0.16528265 -0.014188902
000020 67 d9 de 3c e6 92 2e 3e 87 ea a1 bc 3c 7e 11 be
       0.027203275 0.17048225 -0.019765152 -0.14208311
000030 03 1a 91 bc f5 b0 f1 3c 8c 06 d5 3c ff 3b 2b 3d
       -0.017712599 0.029503325 0.026004098 0.041805264
000040 ae 1f 9b 3c c6 89 fd 3d 25 df 01 be c3 0a 25 3d
       0.018936004 0.12379794 -0.12682779 0.040293466
000050 75 fc 77 3d 2c ed f2 3d 02 4c b4 3c 9d 8d b6 bd
       0.060543496 0.11861643 0.0220089 -0.08913729
000060 3f 13 f8 3c 51 53 3a be bc da fb 3d dd c7 54 3c
       0.030282615 -0.18195845 0.1229758 0.012987104
000070 51 6f 05 3e 1e d3 6c 3d 84 59 34 3e e4 3e ac 3c
       0.13030745 0.057818525 0.17612273 0.021026082
000080 ca 73 57 bd e0 56 eb bc 30 db ea bd 9b 90 1b 3d
       -0.05260066 -0.028727949 -0.11467588 0.037979703
000090 1d a3 9f 3d 7a 57 bc 3d f9 5f 36 3e cb 0f fb bb
       0.07794783 0.09196372 0.17810048 -0.007661795
0000a0 48 dc e2 bd 7a 6f ff 3c 42 ae 09 3e dd 39 1a 3e
       -0.110771716 0.031181086 0.1344538 0.15061136
0000b0 fc 36 96 3d e8 0e 03 be be 55 8c bd ec 44 6c bd
       0.07334706 -0.12798655 -0.068522915 -0.057682917
0000c0 99 cb 85 bd 3f ca 05 3c 81 35 de bd 59 95 bb 3d
       -0.06532974 0.008165895 -0.10850049 0.09159345
0000d0 13 24 27 3c 4c 04 9b 3d 02 29 a0 3d 32 74 0a bd
       0.010201472 0.07569179 0.078203216 -0.03380222
0000e0 95 42 f2 bb b3 fb 52 3d 8f f0 51 3c 5e e1 ef bd
       -0.007393191 0.05150957 0.012813701 -0.11712907
0000f0 13 e3 ae 3d 0f 30 1f be 29 4d d7 3d f3 42 4c 3d
       0.08539405 -0.15545677 0.10512764 0.049868535
000100 57 1d 12 3e 3e e7 41 3d 1b 6d 4e bd 6b 72 ca bd
       0.14269005 0.04733967 -0.05039702 -0.09885105
000110 12 a1 04 3d b2 61 ba bd 06 48 de 3d 40 ce 20 be
       0.03238017 -0.09100665 0.10853581 -0.15703678
000120 55 07 29 bd fa e7 98 3d fb 8f 98 3d f1 6c 05 3c
       -0.041266758 0.07466121 0.07449337 0.008143649
000130 f7 29 8b 3c 93 61 03 be f0 42 02 be 6a 3e 3a 3e
       0.016987784 -0.1283019 -0.12720847 0.18187872
000140 57 db b1 bd b1 d8 0b bc 74 5b bd 3d 86 ae 2a be
       -0.08684414 -0.00853555 0.09245959 -0.16668138
000150 f7 90 c2 3d 7c 62 0c be f2 ae 15 be b4 76 19 3e
       0.09500306 -0.13709444 -0.14617518 0.14986688
000160 53 52 9d 3c 1c a7 1a 3e 69 f8 b3 3c a8 b1 bf 3d
       0.019204294 0.1510281 0.021969037 0.09360057
000170 e7 0d 2a be bf 7b 05 be 9a 2c 16 3d 81 0e 8b bb
       -0.16606866 -0.13035487 0.03666363 -0.0042436724
000180 8e c7 0a bd a3 16 40 3e 6c 1c 7a bd 8d 87 74 3c
       -0.033881716 0.18758635 -0.06106226 0.014924896
000190 d1 08 c5 bd 1f f6 3c 3e 1a 51 05 3e d5 35 1b 3e
       -0.09620822 0.18453263 0.13019219 0.15157254
0001a0 9d f3 23 be e1 7f 63 3d 99 c2 83 bc 50 4e c3 3e
       -0.160109 0.055541877 -0.016084002 0.38145685
0001b0 2a 70 0f 3d 71 1f 41 bd e6 d3 18 3e e7 1d cb 3d
       0.035019077 -0.047149125 0.14924583 0.09917813
0001c0 4b 2a d2 3c 5e 70 b8 bd ae 64 c6 3d 53 c8 00 3e
       0.025654932 -0.09005807 0.09687172 0.12576418
0001d0 30 48 17 be d2 00 2e 3e a0 36 0b be 78 3e 0e be
       -0.14773631 0.169925 -0.13595057 -0.13891017
0001e0 30 dc d8 bd 58 3b ac 3d 1b 1f 34 3e ad ca d5 bd
       -0.105888724 0.084097564 0.17589991 -0.10439048
0001f0 77 54 c4 3c 2f 05 c0 bd 7a d7 6c bd 4a 2e 59 3d
       0.023966057 -0.09375989 -0.057822682 0.05302266
000200 7c 20 1a bd 33 1d 2c be c8 7a ea 3d 0b bd 07 3e
       -0.037628636 -0.16808014 0.114492 0.13255708
000210 b6 33 3c 3e c8 71 b0 3c 34 60 91 3d 77 bd 87 3d
       0.18379101 0.02153863 0.070984274 0.066279344
000220 0e a3 e9 3d 40 b5 21 3e ab a1 66 3d 28 cb ed 3b
       0.11408053 0.15791798 0.056306522 0.007256884
000230 52 cc 1f be 4b 56 0e be 99 55 7c bc b3 be ea bd
       -0.15605286 -0.13900106 -0.015401267 -0.11462154
000240 13 f6 1b be 33 b5 4d be c2 bf 81 bd f8 47 1f 3e
       -0.15230589 -0.20088653 -0.06335403 0.15554798
000250 dc df 30 3e a4 64 34 be ec 4f 06 be 93 47 0e 3e
       0.17272896 -0.17616516 -0.13116425 0.13894491
000260 7a c3 be 3d 70 4e 9c bc b4 d7 23 3e 7c 84 35 3d
       0.09314628 -0.01908037 0.16000253 0.0443158
000270 81 25 39 3e dd 18 75 3c 54 2c 34 be b4 61 a4 3d
       0.18080713 0.014959541 -0.17595035 0.08026448
000280 25 e3 2d be a1 d8 96 3d a4 2a f4 bd ef ac ce 3d
       -0.1698118 0.073655374 -0.119221956 0.10091578
000290 56 a0 ee bc 5c 20 0b bd 94 87 1d be a4 28 8c bc
       -0.029129189 -0.033966407 -0.1538375 -0.017109223
0002a0 db 75 49 bd dc ce 10 bd 69 cc 66 bd 0e e6 0d bd
       -0.04918466 -0.035353526 -0.056347284 -0.034643225
0002b0 09 6a 2c be 56 fc 8e bd 14 47 24 be 99 d8 1d 3d
       -0.16837324 -0.06981723 -0.16042739 0.03853664
0002c0 f9 80 0e 3e 7b 76 1f 3e e0 10 db bd 2e 82 22 3e
       0.13916387 0.1557254 -0.10696578 0.15869972
0002d0 d5 3f f3 bd bf 46 72 bd 68 22 7e 3d 27 cb 14 3e
       -0.11877409 -0.0591495 0.06204453 0.14530621
0002e0 dd db 1a be c4 bd 1d 3d de 55 19 3d ac 5d 75 3c
       -0.15122934 0.038511053 0.037435405 0.014975946
0002f0 80 73 1d 3e 8e fd 02 3e 62 cc b8 bd e4 47 de 3d
       0.15376091 0.12792036 -0.09023358 0.10853556
000300 40 36 a7 3d 4f 8d 12 bd 2e 95 a9 3d f4 28 12 be
       0.08164644 -0.035779294 0.08280407 -0.14273435
000310 17 a3 de 3d 91 2d 69 bd 2a e8 03 3e 33 41 91 bd
       0.10870951 -0.05692822 0.12881532 -0.07092514
000320 1c 3d e7 3d ff 94 47 bd 51 92 32 be 6c 7f 09 be
       0.112909526 -0.048726078 -0.17438628 -0.13427514
000330 63 9e d2 bd 4e 1a 04 3e e7 12 a5 bd a4 6c 06 3e
       -0.10284116 0.1290066 -0.08060246 0.1312738
000340 4f 09 cd 3d 9a 20 10 be 60 11 a6 3d 25 84 1f 3e
       0.10011541 -0.14074937 0.08108783 0.15577753
000350 b8 eb 38 3d af 25 5f 3c 02 56 3e be cf d0 ca 3b
       0.045146674 0.013619824 -0.18587497 0.0061894427
000360 a6 41 13 bc 10 6d 21 be 3d a5 28 3d 41 04 6f bd
       -0.00898782 -0.1576426 0.04117321 -0.058353666
000370 f9 32 66 bd aa 4f f4 3d 00 e9 c3 bd 18 dd ea 3d
       -0.056200955 0.11929257 -0.095659256 0.114679515
000380 2f 8f db bd 8b f3 8e bd 18 1a 1a 3e da e3 13 be
       -0.107206695 -0.06980046 0.15049016 -0.14442387
000390 f9 30 6a bd 0d 08 d2 3d 9e 67 37 bd 08 e6 e7 3d
       -0.05717561 0.10255442 -0.04477655 0.11323172
0003a0 c3 49 85 bd 05 00 b8 bd 19 53 29 3e 05 9d 90 3d
       -0.065082096 -0.08984379 0.16535605 0.07061199
0003b0 c1 09 82 3c 07 ed 68 3d 9b 16 12 be 24 2c 49 3d
       0.015873792 0.056866672 -0.14266436 0.04911436
0003c0 f1 38 a5 3c 77 45 0d 3e 3d 75 0c 3e 60 47 c8 bd
       0.020168753 0.1379603 0.13716598 -0.09779239
0003d0 3b b4 05 3b 71 08 ff 3d 2f 12 22 3d 5b 66 a2 bb
       0.0020401615 0.12452782 0.039568122 -0.0049560494
0003e0 f7 a9 67 bd 6d 20 e5 3d 7c 51 41 3d ea 31 15 be
       -0.056558575 0.11187825 0.04719685 -0.14569822
0003f0 d6 90 e4 3d 6b 41 bd 3d 6e ba 2c 3e 54 84 19 3e
       0.11160438 0.09240993 0.16867992 0.14991885

sequential_3/dense_11/MatMul f4 [1, 64]
000000 6e 27 6b 3d 38 32 4a 3e d0 5c 6e be 72 76 9b bd
       0.05741065 0.1974572 -0.23277593 -0.07590951
000010 75 7d 15 3e 2c fd 27 be bc 93 1b 3e 15 b3 4b be
       0.1459864 -0.16405171 0.15193075 -0.19892533
000020 3f 7f bf bd de c7 97 be 4c e1 8a 3e 02 24 83 be
       -0.09350442 -0.29644674 0.27125013 -0.2561341
000030 17 32 f1 bd 3b ae 12 bd 24 8d 93 3d 74 30 fb bd
       -0.11777132 -0.03581069 0.07204655 -0.12265101
000040 96 65 fa 3c ed 7a 40 3e 99 67 1c be 36 f4 83 3e
       0.030566018 0.18796892 -0.15273894 0.25772256
000050 32 1f 27 be b5 02 93 be e5 e8 e9 bd 32 6a 4a bd
       -0.16320494 -0.28713003 -0.11421374 -0.049417682
000060 5a 3c 77 3e 88 6f cb bd 9f 83 ef 3d d2 29 42 3e
       0.24144116 -0.09933382 0.116950266 0.18961266
000070 96 b5 a0 3d ad d9 da bc 54 52 3e be b9 f4 fc 3c
       0.07847135 -0.026715124 -0.18586093 0.030878412
000080 f3 32 27 3c 8d 2f 06 be 3f b4 72 bd f5 b2 29 3e
       0.010205018 -0.13104077 -0.059253927 0.16572173
000090 39 d7 79 be e7 49 f4 bc b4 c8 82 3e 69 6a ca 3d
       -0.24398507 -0.029820396 0.2554375 0.098835774
0000a0 24 c2 1d be 66 47 77 3e b1 cf 8d be 56 c9 1b 3d
       -0.1540609 0.2414833 -0.27697518 0.038033806
0000b0 56 52 2a be a9 b3 87 3e a1 3f 19 be 51 e9 27 bd
       -0.16632971 0.26504257 -0.14965679 -0.040993992
0000c0 3f 28 3d bd 0e ae 22 3e 37 29 19 bd 81 c1 62 be
       -0.04618096 0.15886709 -0.03739282 -0.22144128
0000d0 86 83 b3 bd f2 5a 8d be 29 97 25 bd 09 47 f0 bd
       -0.087653205 -0.27608448 -0.04042736 -0.11732299
0000e0 41 ab 89 be 06 64 21 bd ed 05 88 bd 59 5a e9 bc
       -0.2688847 -0.03940203 -0.06641755 -0.028485464
0000f0 f1 82 b7 bd 96 87 08 3b a5 b2 15 be 0f cd e6 3d
       -0.08960522 0.0020832769 -0.14618929 0.112695806
