realtime_pose_detection_android/app/src/main/ml/model_1.tflite (tflite, 19504 bytes, 5 tensors)

sequential_2/dense_7/BiasAdd/ReadVariableOp f4 [32]
00000000: 88bc 133d 7159 003e a984 453d 4a51 443d
00000010: ce4a 543c 14b9 88bc 5242 1e3b a719 993d
00000020: e9d6 3cbc ebb6 0dba 0557 c2bc e615 85bc
00000030: 00f3 333e cbe2 86bc fc33 10bd fb01 a6bc
00000040: 76fc 5b3e 8502 fbbc ebcb 28bc d0f0 40ba
00000050: b2ea 5abb 87c9 17bd b2c6 97bd e9b9 7f3d
00000060: 7916 93bd 3a6c 2c3d 3abf 753e 3ba6 123b
00000070: aeab 433c db6c 5b3b e9a8 933c 935a 32bb
0.03606847 0.12534119 0.048222218 0.047929086 0.012957288 -0.016689815 0.0024148417 0.07475596
-0.011525848 -0.000540598 -0.023723135 -0.016245794 0.17573166 -0.016465565 -0.035205826 -0.020264616
0.21483025 -0.03064085 -0.010302524 -0.00073601026 -0.003340405 -0.037057426 -0.07410945 0.062433157
-0.07182021 0.0420954 0.23998728 0.0022376913 0.011942787 0.003348163 0.018024879 -0.002721463

sequential_2/dense_6/BiasAdd/ReadVariableOp f4 [64]
00000000: 7825 febc b6e6 4a3d e6f7 64bc 63b5 5a3a
00000010: 3e6f 933d 67fb 8c3c 88ee 703b d1c9 263d
00000020: 7ce5 0bbd 3a7d 5239 dd81 93ba d583 59bc
00000030: abd6 c3bb 04d3 b33c ce66 6cbb adae 06bc
00000040: fb59 263b 4d1e 6c3e 856b f43d e201 8dbc
00000050: 53de ebbc becc 523c 7162 d0bc 98d1 733e
00000060: 8389 f2bc 8999 223e 8dfa ebbc 2385 05bb
00000070: 6b7d 253b 750b 27bd 2ce2 00bd 4625 95bb
00000080: d3f1 21bc 0439 eabc 3bf2 babc b5a2 6bbc
00000090: 5cac b4bc 18f7 bebc c8af f7bc 6755 d2bb
000000a0: f996 37bc 9ca3 833a 416c b7bc 9f88 80b9
000000b0: df15 903d 098d 383d d3b5 80bb 697b 98bc
000000c0: bc70 f33d 5e75 0f3e 3d60 c4bc 9040 d1bb
000000d0: 6595 ce3d 2b8e 74bb 9246 33bc 3360 6cbc
000000e0: 9860 e3bc 6e4c 823e 360a 7e3e e924 86bb
000000f0: afbe 0d3d a927 aa3d 02eb efbc b61f e13c
-0.031023726 0.04953643 -0.013975119 0.0008343069 0.07198952 0.017209722 0.003676327 0.04071981
-0.0341544 0.00020073811 -0.0011253912 -0.01327606 -0.005976518 0.021951206 -0.0036072019 -0.008220357
0.0025383222 0.23058434 0.1193457 -0.017212812 -0.028792536 0.012866197 -0.025437566 0.23810422
-0.029606586 0.15878882 -0.028805995 -0.0020373545 0.0025251757 -0.04078241 -0.031465694 -0.0045515625
-0.009884316 -0.02859164 -0.022820583 -0.014382054 -0.022054844 -0.023311183 -0.030235186 -0.006418872
-0.011205428 0.0010043266 -0.022390487 -0.00024515853 0.070354216 0.045056377 -0.003927925 -0.018613534
0.11886737 0.14009616 -0.023971671 -0.0063858703 0.100870885 -0.0037316184 -0.010942118 -0.014427233
-0.02775602 0.25448936 0.24808583 -0.0040937555 0.03460568 0.08308346 -0.029286865 0.027480941

sequential_2/dense_6/MatMul f4 [64, 34]
00000000: 601e fc3d 58e4 23be 26c1 4abe e005 eb3d
00000010: 7a45 d73d b70c a23d 7ba8 84be c805 8bbe
00000020: cfe4 113e aec3 033e 0b81 0b3e 1dca aabd
00000030: be7d 7fbe 3bf8 f43c 05b3 63be 748e 27be
00000040: 6263 08be 3f5c 95be 9d0c 513e ebe3 e7bc
00000050: c0bf b1bd 9a86 cc3d 8634 68be 13f8 0b3e
00000060: d867 283d 6b81 ad3d ab53 913d 85e2 cbbd
00000070: 71ca 453e 07ec cfbc f7b1 1e3d 976c 02be
00000080: 47ef 5c3e 5464 3cbe 92dd 413e 44cd 6c3e
00000090: c0b4 0c3e a6d3 c43d aeff e53d 8ea7 993d
000000a0: 0c07 07be fe14 b5bd 28ed cbba cdaa dbbc
000000b0: cc27 b23c ae61 2e3e 97f7 4a3e 84cb 4d3e
000000c0: a6df 1b3e b437 7a3d f18a 47be ace6 9c3d
000000d0: d2de 63be c38c 2fbe eacc 543e 4f38 593e
000000e0: a90f 04be e411 a73b a413 133e 4e4f f33d
000000f0: 070c eb3d a9ad c7bc bf0c 86be bfb0 453e
00000100: ad94 06be 3bc2 b63d 800a 88bd a7e2 13be
00000110: 2390 66be 70de 593e 401c 543d 4332 59be
00000120: 62b4 6d3e b772 58bb 9b42 473e f3d6 d0bd
00000130: 2883 813d e727 cc3d 051a 56bd eafe 1d3e
00000140: 0903 94bd 378e 11be 9f98 a9bd d9cc 0b3d
00000150: e1ec 23bd b1c7 09bc e25b f1bd 2d6a 3dbe
00000160: d407 cebd 5b18 8c3d 7eb3 90bd a07c b23d
00000170: 0d30 b7bd 0ab4 02be b7c7 ffbd 4e65 65be
00000180: 0c0f 16be 08b1 e2bd 8a19 083e faa9 653e
00000190: ad08 213d f70b 39bd 96f8 04be 8128 12be
000001a0: 68d6 22be a5be 823e a2a2 7cbd 9420 9d3d
000001b0: 8324 e13c fedd b6bb c1c2 863d 26c6 463e
000001c0: bc42 533b ed24 6d3e ec68 483d a610 7bbd
000001d0: dd95 433e 94a8 28be eb1f 7fbd 7888 3fbe
000001e0: e912 8abd a62d 3c3e 5de5 c4bc 0579 93bc
000001f0: 8af0 683e 96c4 f03d e68c e53d c154 403e
00000200: ddee 57bd bff6 0ebe 596a 2e3e d7d0 323e
00000210: a3a7 6f3e 2430 533e df03 083e 91c8 15be
00000220: 8374 513c 2cb6 d83d ac7f 51bd 130d 31be
00000230: fb69 07be 12e7 163e eb01 ad3d 34f4 99bc
00000240: 1025 82be 2041 41be fa40 f93d 4669 7f3e
00000250: e429 e3bd 0145 15be 7391 f43d f539 1b3e
00000260: 86dc 6b3d d27a 3c3e fe39 70bd da79 18be
00000270: 78c8 4b3e 1ff3 bc3c e295 c83d 8d4f 643c
00000280: 4981 263e 8d9a 91bd 7ab4 303e 868a b1bd
00000290: db57 33be fe72 70be 38d3 18bd ef40 d53c
000002a0: 08d4 083e 4cb1 bb3d c2af 773e fe72 073e
000002b0: add8 883d afd6 de3d ac6f 5a3d 1eec d93d
000002c0: b37d 1cbd cc92 3c3e 0a94 78bd 403f 513e
000002d0: b591 8c3d 8af2 83be ac01 373e c9e9 343e
000002e0: 3dc6 15be 7b48 60be 6fdb 6ebe bfbe a03d
000002f0: d04f 7dbe a1e6 e03b 5771 133e 72d7 8bbd
00000300: e201 8dbd 600d 9d3c d4e7 44bd d65f 233d
00000310: b522 443e 0691 b2bc f164 8c3d dba2 46be
00000320: 5c12 3a3d fd3e 14be b636 323e 7dec 5ebe
00000330: c93a 72bc c21d 33be 9deb 48be 3129 54be
00000340: 7389 d83b 5578 b43d 9183 c8bd bb98 5d3e
00000350: a865 df3d 3e06 023e c1ae 6bbd 3f08 363c
00000360: 7498 823e 3502 2bbe 1853 433e 5b13 343e
00000370: 69cd 66bd e740 6ebe b405 25be 70c6 823d
00000380: 9534 643e 29b7 373e b20a f7bc 3bbf 213d
00000390: 3eba 68be ccbb 563e c9cb efbd b46d 56be
000003a0: 6d4e 983c 509c 0b3e 41b2 053e f12c 04be
000003b0: 3510 babd 24d3 5cbe 779b 263e 666e ebbd
000003c0: 7448 80bd 3563 0bbd 4e25 21be 15a0 07bd
000003d0: e5b5 423e c251 97bb c713 7b3e 19ab 5cbe
000003e0: a19e e63c a3b9 f6bc c6f8 7fbd f8bc 04be
000003f0: 4034 3fbe ba88 ff3c 2326 293e 9f3a b83d
0.12310481 -0.16005075 -0.19800243 0.1147573 0.105112985 0.079125814 -0.2590979 -0.27152848
0.1424744 0.12867615 0.13623445 -0.08339331 -0.2495031 0.029903522 -0.2223626 -0.16362935
-0.13319162 -0.2917194 0.20414968 -0.028306922 -0.086791515 0.09986611 -0.22676286 0.13668852
0.041114658 0.0847195 0.070960365 -0.099553145 0.19315507 -0.025381101 0.03874394 -0.12736736
0.21575652 -0.18397647 0.18932179 0.23125178 0.13740826 0.09610681 0.11230408 0.07502662
-0.13186282 -0.088418946 -0.0015558349 -0.026814843 0.021747492 0.1702945 0.1982101 0.20097166
0.15222034 0.06108828 -0.19486596 0.07661185 -0.22252968 -0.1714354 0.20781294 0.21212886
-0.12896599 0.0050985683 0.14362961 0.118803605 0.114769034 -0.0243748 -0.261816 0.19305705
-0.13142653 0.08923765 -0.06642628 -0.1444193 -0.22515921 0.2127626 0.051784754 -0.2121058
0.23213342 -0.003302736 0.19459002 -0.10197248 0.06323844 0.09968548 -0.052270908 0.15429273
-0.072271414 -0.14214407 -0.08281063 0.034130905 -0.040020827 -0.008409427 -0.117851034 -0.18497534
-0.10060087 0.06840583 -0.070654854 0.087151766 -0.08944712 -0.12763992 -0.124892645 -0.22401926
-0.14654177 -0.11068922 0.13290992 0.22428122 0.039314914 -0.045177426 -0.12985453 -0.14273264
-0.15902102 0.25536075 -0.061678536 0.076722294 0.02748323 -0.0055806627 0.06580115 0.19411525
0.0032235822 0.23158617 0.048928186 -0.061295174 0.19100137 -0.16470557 -0.0622863 -0.18704402
-0.06741888 0.18376788 -0.02403515 -0.018002043 0.22748008 0.11756246 0.11208515 0.18782331
-0.052718032 -0.13961314 0.17032756 0.17462479 0.23403792 0.20623833 0.13282727 -0.14627291
0.012784126 0.105816215 -0.051147148 -0.17290144 -0.13224022 0.14736584 0.084476314 -0.018793203
-0.254189 -0.188725 0.121705964 0.24942502 -0.110919744 -0.14577104 0.11941805 0.15158828
0.057583354 0.18406227 -0.058649056 -0.14890233 0.19900692 0.023065148 0.09794213 0.013934982
0.16260256 -0.07109556 0.17256346 -0.086689994 -0.17513983 -0.23481366 -0.03731081 0.02603194
0.13362134 0.09164676 0.2418814 0.1322746 0.066819526 0.108807914 0.053329155 0.10640739
-0.038205814 0.18415374 -0.060688056 0.20434284 0.06863729 -0.2577098 0.17871732 0.17667307
-0.14626403 -0.21902649 -0.23325895 0.07848882 -0.24737477 0.0068634306 0.14398704 -0.06828202
-0.06885125 0.019171417 -0.04807265 0.03988632 0.19153865 -0.021797668 0.068551905 -0.19398062
0.045427665 -0.14477153 0.17403683 -0.217699 -0.014784523 -0.1749182 -0.1962113 -0.20718838
0.006608182 0.08812014 -0.09790719 0.21640293 0.10908061 0.12697694 -0.057539705 0.011110364
0.25506938 -0.1670006 0.19074667 0.17585509 -0.05634824 -0.23266946 -0.16115457 0.06385505
0.22285683 0.17940964 -0.030156467 0.039489012 -0.22727296 0.20970076 -0.11708791 -0.20940286
0.018592084 0.13633847 0.1305628 -0.12907769 -0.090851225 -0.21564919 0.16270243 -0.11495666
-0.06263819 -0.034030158 -0.15736887 -0.03311165 0.190147 -0.0046179006 0.24519263 -0.21549644
0.028151812 -0.030117815 -0.06249311 -0.12962711 -0.18672276 0.031193126 0.16518454 0.08995556

sequential_2/dense_7/MatMul f4 [32, 64]
00000000: 462e 05bc 82e9 883e 53f7 a9bc 26ca 52be
00000010: 902a 81bd ceee 863d 5369 7d3d 1d7f a1be
00000020: 91f7 1dbe 4469 b5bd f339 0bbe 5a47 37be
00000030: 5673 303e 9cb5 4bbe 151a 76bc 4a55 19be
00000040: 3889 0bbe 904c d5bd ae80 96bd 5f66 22bd
00000050: 23b4 033e e821 72bd d0e1 20bc 0958 a5bd
00000060: 55c4 35bd 01af ee3d 4d76 0abe f156 8f3e
00000070: 8185 003e 14bf 3ebe 1f39 033e b8ef cd3d
00000080: e53f b1bd 0074 0a3d 65b7 6fbe f498 1ebe
00000090: a085 39bd d16d b53d f34f 1ebe 66be c4bd
000000a0: 196a 263e c38a 093b 66fc 06be 1d66 0bbe
000000b0: 9b25 5ebe 5db1 c33d 946c 613e e5ba 0bbe
000000c0: 4598 03be 4aea 1a3d ba37 27be e2ba a23d
000000d0: 12d7 33be e13d eabc e9e1 803c 5959 873d
000000e0: b3bf 9c3d b627 64be beb2 153e 444f 2f3e
000000f0: 9a0f 733e 95c0 3fbe 59d6 273e 5a7d 863d
00000100: 7624 d3bd f4b5 043d a54f 133b 19f0 273e
00000110: 865c 193e 69e5 543e d0dc 543e 42ae 47bd
00000120: caa0 863e dfba 153d 3593 8f3e 6960 103e
00000130: 3a55 23be 1cf3 12be 6581 6cbc 42d6 40be
00000140: 93d7 233e 44ca 66be b9b9 fdba eb02 0e3d
00000150: 2ade c5bd 3a30 73be 2dc4 46bd 8ec6 f03d
00000160: 8d31 d93d 9d94 32be 3d33 c03c 19c1 86be
00000170: e248 bcbd e3ac 53bd 5057 17bd e82b e53a
00000180: 3a3a 35be 2e5b 89be 1cea f3bd 2821 5dbe
00000190: 9b2d 1bbe 2f29 09be 6040 43be c671 323e
000001a0: 12cf 0cbe 5f5c 41be 568c 82bd 40ba 513e
000001b0: 9303 373e 66c2 653d 3804 aa3c b6a0 083e
000001c0: 4bba 933d cc57 cebd af1b 8fbd dfbc c1bd
000001d0: 20cb 01be f6e4 3cbe 2b3b bf3b b7a3 723e
000001e0: ac19 46be 22f6 d7bc 515c c43e ff68 e03c
000001f0: 0b6d 8dbe 2efe 19be c7b1 f13c b202 343e
00000200: 29bf 323e d710 6dbe afb9 e5bd 3fe2 95bb
00000210: b054 703e e579 b53d cc69 42bd 992f c03d
00000220: 515f 403e af7e 483e 54f9 5fbe 50a9 30be
00000230: 5bdc 533e 321d 71be d811 2c3e 6487 2bbe
00000240: 3fea a0bd 80ee 413e fa68 493e a552 f73d
00000250: d7df 053e 01f0 dd3c 3eb2 18be a8b7 6a3e
00000260: 7777 84be 78e1 553d 4307 573e c5f8 e23d
00000270: b802 57be 231c 39bb 4980 a03d 7139 2dbe
00000280: b0c9 14bc dda1 dd3d 191f cd3d 6018 0bbe
00000290: 7269 af3d 245d 103e fff0 9bbc f602 be3d
000002a0: 7cd3 5b3e 089b 853e 200a 9c3d 7090 0dbe
000002b0: dc52 723e 0b76 40be 3182 87b9 4f01 cd3c
000002c0: a4a2 0d3e f15a ecbc f382 a0bc 5504 35be
000002d0: c519 3d3d 0614 febd 82c4 0ebe fa00 9cbd
000002e0: f184 203d b112 3c3e 106e 633e 23c8 7cbe
000002f0: 587e ecbd 2371 01bd 7ef4 b03d 3b74 70be
00000300: b7b0 efbd 95f0 1c3c e5ed f2bd 1b6e b23c
00000310: 34bb 4dbe 71ae 4c3e 3640 a33e 5a2f 0c3d
00000320: 7b96 0ebe 617d 40bb 91f5 cc3d 3613 443d
00000330: 08ae 6b3e f584 d6bd cf72 2d3e daac a6bd
00000340: fdbd e43d d6b0 13bb 0d10 47bd ce79 723d
00000350: ef78 efbd c007 0e3e b322 1cbe 5da5 23be
00000360: b0ac 07be 7a57 2bbe 45db 27be 26e1 fdbc
00000370: 1cf3 2bbe 65f2 323e 38aa 20bc 8f5e 9cbd
00000380: 37d7 763e a143 50bd 900e 2e3c 49ac 01be
00000390: a47f f03c b615 933d 4b31 6dbd 7462 163e
000003a0: 0081 883e 85e7 243e 101d 4fbd b68f 61be
000003b0: d3b0 f7bd 4c23 c93d cf47 98bc 59bd 073e
000003c0: 0eef b83d b464 873e 40a2 ae3d 091c c23d
000003d0: de8a 513e b18b 3abe f52b 943e c05f b4bb
000003e0: fb5a 49be 5f3c b7bd 2318 71bd 55a1 163e
000003f0: d134 4bbd 94a9 383c 21be b9bd 5e1e 923e
-0.008128708 0.26740652 -0.020747816 -0.20584926 -0.06306946 0.06588517 0.061868023 -0.31542292
-0.1542647 -0.088579684 -0.13596325 -0.17898312 0.17231497 -0.19893497 -0.015020867 -0.14973941
-0.13626564 -0.10414994 -0.073487625 -0.03964841 0.12861685 -0.059114367 -0.009819463 -0.08073432
-0.04437669 0.11654473 -0.1352169 0.2799602 0.12550928 -0.18627578 0.12814759 0.10055488
-0.08654765 0.033802032 -0.23409803 -0.15488034 -0.04529345 0.088588364 -0.15460186 -0.09606628
0.1625141 0.002098725 -0.1318222 -0.13613172 -0.21694033 0.09555314 0.22014076 -0.13645513
-0.12851055 0.03782109 -0.16329852 0.07945801 -0.17562512 -0.02859396 0.015732722 0.066088386
0.07653751 -0.22280774 0.14618966 0.17120081 0.2373642 -0.18725808 0.16390361 0.06566878
-0.10309689 0.032400087 0.0022477892 0.16400184 0.14976701 0.20790638 0.20787358 -0.04875017
0.26294547 0.036555167 0.28041998 0.14099278 -0.1595048 -0.14350551 -0.014435147 -0.18831733
0.16000204 -0.22538096 -0.0019357718 0.03467075 -0.09661515 -0.23748866 -0.04852693 0.11756621
0.10605154 -0.17439504 0.023461932 -0.26319197 -0.09193589 -0.05167855 -0.036948502 0.0017484399
-0.17697993 -0.26827377 -0.11909887 -0.2159468 -0.15154116 -0.13394617 -0.19067526 0.17426214
-0.13750866 -0.18882893 -0.06374423 0.20481205 0.17872457 0.056093596 0.020753965 0.13342556
0.07213267 -0.1007534 -0.06987702 -0.094598524 -0.12675142 -0.18446717 0.005835911 0.23695265
-0.1934573 -0.026362482 0.38351682 0.027393816 -0.27622256 -0.15038368 0.029503716 0.17579153
0.17455734 -0.23150955 -0.11217057 -0.00457409 0.23469806 0.0886114 -0.047464177 0.093840785
0.1878636 0.19579576 -0.21872455 -0.17252088 0.20689528 -0.23546293 0.16803682 -0.16750866
-0.07857179 0.18938637 0.19668952 0.1207631 0.1307367 0.027091982 -0.14911744 0.22921622
-0.25872394 0.052216977 0.20998864 0.11082605 -0.20997131 -0.002824553 0.078369685 -0.16916443
-0.009081289 0.108218886 0.10015697 -0.13583517 0.08565034 0.1409803 -0.019035814 0.092779085
0.21467394 0.26094842 0.07619119 -0.1382463 0.23664421 -0.1879503 -0.00025846207 0.025025038
0.13831574 -0.028851958 -0.019593691 -0.17677434 0.046167154 -0.12406163 -0.1394215 -0.07617374
0.039189283 0.18366505 0.22209954 -0.24685721 -0.11547536 -0.031602036 0.08640383 -0.23481838
-0.117036276 0.009578844 -0.11861781 0.021781018 -0.20090944 0.19988419 0.31884927 0.034224845
-0.13924591 -0.0029371607 0.100077756 0.047869883 0.23015606 -0.10474578 0.16938327 -0.081384376
0.1116905 -0.0022535822 -0.04859929 0.059198193 -0.11692988 0.13870144 -0.15247612 -0.1598105
-0.13249469 -0.16732588 -0.16392238 -0.030991148 -0.16791958 0.17475279 -0.009806208 -0.07635223
0.24105535 -0.050845746 0.010623589 -0.12663378 0.029357739 0.071818754 -0.057908338 0.14685994
0.2666092 0.16103943 -0.050564826 -0.22027478 -0.120942734 0.098211855 -0.018588929 0.13255824
0.09029971 0.26444018 0.085270405 0.094780035 0.2046313 -0.1821735 0.28939787 -0.0055045784
-0.19663613 -0.08947062 -0.05886091 0.14709981 -0.049610917 0.011270899 -0.09069467 0.28538793

sequential_2/dense_8/MatMul f4 [1, 32]
00000000: fd96 6ebd cb43 073e d6cd 8c3e c36c 34be
00000010: 1c03 8c3e 0b32 93be 6bcf a3be a856 bf3e
00000020: 3f03 943e bfbf babe db64 cd3e 54b5 f9bc
00000030: 62fe a13e 9cce c73e 6877 283d 4a55 c2be
00000040: 2bf9 873d d97e 613e 8cd2 c4be 527e 753e
00000050: cd1b 543e e034 af3e 9aec 09be e124 7e3e
00000060: 168d 93be 011d f5bc 1f9e 243e daec a6be
00000070: 856d 163e b1de 40bd d1ea 863d d9b8 5a3e
-0.058249462 0.13209455 0.2750079 -0.17619614 0.27346122 -0.28749117 -0.31994185 0.373708
0.28908727 -0.36474416 0.4011601 -0.030481972 0.3163939 0.39024818 0.0411295 -0.37955695
0.06639322 0.22021045 -0.38441885 0.23973969 0.2071373 0.34220028 -0.13469163 0.24818756
-0.28818578 -0.029921057 0.16075943 -0.32602578 0.14690216 -0.047087375 0.065877564 0.21359576
